model_weights.pth (torch, 596224 bytes, 7 tensors)

embedding.weight f4 [66, 200]
0	0x898252dc	-3.1374282e-33
1	0x8863fd46	-6.860805e-34
2	0x1c3fbf18	6.344358e-22
3	0x888c0ec7	-8.429418e-34
4	0x0bac3d6b	6.63444e-32
5	0x082f13c7	5.2685395e-34
6	0x0aac1682	1.6571464e-32
7	0x0ef20b26	5.966834e-30
8	0x197e57e6	1.3149243e-23
9	0x9205c806	-4.221395e-28
10	0xa1cfa7bb	-1.4071263e-18
11	0x8b0ed837	-2.7510867e-32
12	0x0a4dc369	9.9071435e-33
13	0x1e3dec7e	1.0054482e-20
14	0x09c405ba	4.719067e-33
15	0x99443993	-1.01445895e-23
16	0x1e4df262	1.0902733e-20
17	0x8b4c862f	-3.938992e-32
18	0x0d0086ba	3.9605216e-31
19	0x89c2a64a	-4.686018e-33
20	0x0c22ccc7	1.2541649e-31
21	0x09f814f0	5.9723518e-33
22	0x0a04d24d	6.395122e-33
23	0x109fe19e	6.306206e-29
24	0x1c3764ee	6.068007e-22
25	0x14e8029b	2.3427041e-26
26	0x074d87fb	1.5462447e-34
27	0x1adab3e0	9.045329e-23
28	0x08ecf767	1.4261897e-33
29	0x8a06fd23	-6.499475e-33
30	0x0b0e5f2f	2.7419813e-32
31	0x34fa53dc	4.6627144e-07
32	0x8b9c87ab	-6.0293145e-32
33	0x07e38c14	3.4237494e-34
34	0x08a563e7	9.954063e-34
35	0x313aea31	2.7199685e-09
36	0x0a1be611	7.506249e-33
37	0x0b964646	5.7883634e-32
38	0x8ad6f04b	-2.0697839e-32
39	0x08defd6c	1.3420718e-33
40	0x082c50a7	5.1854174e-34
41	0x8cb2364e	-2.7457926e-31
42	0x87c7b169	-3.0046464e-34
43	0x9e29f91f	-8.9983025e-21
44	0x89ea6d98	-5.6436512e-33
45	0x207026cc	2.0341628e-19
46	0x06ec13c4	8.8802376e-35
47	0x08bbe51c	1.13085165e-33
48	0x204d4104	1.7385687e-19
49	0x0ea6de89	4.1136453e-30
50	0x8c8c5274	-2.162004e-31
51	0x896bcb49	-2.838268e-33
52	0x1343b619	2.4702241e-27
53	0x1a73292f	5.028449e-23
54	0x35a019a4	1.1928391e-06
55	0x88f3e4e3	-1.46788415e-33
56	0x32bd1276	2.201089e-08
57	0x88d182ad	-1.2609452e-33
58	0x0bea3823	9.0217987e-32
59	0x0d1f4df6	4.90895e-31
60	0x09f878b1	5.9817326e-33
61	0x888915db	-8.250526e-34
62	0xacbb67be	-5.3263774e-12
63	0x8e4a9a82	-2.4972815e-30
64	0x25b7ef8a	3.1907758e-16
65	0x996274b2	-1.17074926e-23
66	0x099faa67	3.8438103e-33
67	0x09ca59bd	4.871412e-33
68	0x0adf955c	2.1530302e-32
69	0x8a0152bd	-6.2266854e-33
70	0x89940306	-3.5632547e-33
71	0x11e11786	3.5513238e-28
72	0x88960000	-9.027797e-34
73	0x0b8f3e1e	5.517506e-32
74	0x8a5aab8e	-1.0528584e-32
75	0x89761f4b	-2.9625887e-33
76	0x09bb4cb6	4.509075e-33
77	0x11e15408	3.555053e-28
78	0x15fa5c86	1.0112017e-25
79	0xa004ad06	-1.1238084e-19
80	0x0c1bda0e	1.2006384e-31
81	0x9425866c	-8.356881e-27
82	0x87ee247f	-3.583171e-34
83	0x0e4aea22	2.5011153e-30
84	0x0757df2f	1.624039e-34
85	0x081a5a21	4.6448635e-34
86	0x891b4822	-1.8691363e-33
87	0x898f9416	-3.4565257e-33
88	0xa62fb531	-6.096088e-16
89	0xac123610	-2.0777859e-12
90	0x0e3e6be5	2.3471257e-30
91	0x8fe8f9e9	-2.2973228e-29
92	0x15a9b570	6.8544814e-26
93	0x06905430	5.429048e-35
94	0x88603393	-6.7468173e-34
95	0x0d84c490	8.182449e-31
96	0x8a21fd18	-7.79947e-33
97	0x8eb3f7b3	-4.4365433e-30
98	0x95621187	-4.5654163e-26
99	0x08bc1e68	1.1321987e-33
100	0x0cf49ec0	3.7689697e-31
101	0x8fce9c6f	-2.0373424e-29
102	0x0acf2691	1.9947882e-32
103	0x8bab7db8	-6.6055965e-32
104	0x0af74b9f	2.381368e-32
105	0x9c8dad2d	-9.375362e-22
106	0x89887a1a	-3.2855633e-33
107	0x8b8ed645	-5.501881e-32
108	0x8af2ffe0	-2.3400002e-32
109	0x0b31b1c5	3.42227e-32
110	0x88438b2a	-5.8844265e-34
111	0x314a4755	2.9435416e-09
112	0x95d3f989	-8.561592e-26
113	0x89ec867c	-5.6941402e-33
114	0x1022b6c8	3.2089676e-29
115	0x1080db32	5.082482e-29
116	0x9709a4ce	-4.44751e-25
117	0x8aa450be	-1.5822997e-32
118	0x07e08751	3.3783306e-34
119	0x09bd5fc0	4.5590138e-33
120	0x98345157	-2.330552e-24
121	0x094dee14	2.4787921e-33
122	0x8ddbd7fe	-1.3548915e-30
123	0x8dc95e4b	-1.2410282e-30
124	0x89a42b48	-3.9522265e-33
125	0x8e60f545	-2.7728225e-30
126	0x89f47ebc	-5.8860044e-33
127	0x88b6ad9a	-1.099454e-33
128	0x9d7dba84	-3.3580698e-21
129	0x940eda0a	-7.2121685e-27
130	0x89420c4a	-2.3357679e-33
131	0x15059f39	2.698474e-26
132	0x09c96e20	4.849255e-33
133	0x8b3422e8	-3.4693e-32
134	0x9205d15f	-4.222547e-28
135	0x8ab31a70	-1.7247018e-32
136	0x89aaa6bf	-4.108282e-33
137	0x0a1f9a24	7.684562e-33
138	0x95f44c83	-9.867153e-26
139	0x88bf03c7	-1.1496282e-33
140	0xaefef7ed	-1.1594623e-10
141	0x8933f0fa	-2.1659648e-33
142	0x0945b66f	2.3798792e-33
143	0x88a5108a	-9.934465e-34
144	0x0cb56194	2.7946193e-31
145	0x09b5b56a	4.3744766e-33
146	0x0a06353b	6.461877e-33
147	0x890167c6	-1.5576604e-33
148	0x982729af	-2.1605289e-24
149	0x87e7bd9c	-3.486846e-34
150	0xa5d3fb25	-3.6772847e-16
151	0x8a7c482e	-1.2146934e-32
152	0x0b8a5c5a	5.329462e-32
153	0x094cc082	2.4646124e-33
154	0x0cdf7af6	3.4432595e-31
155	0x88a7956d	-1.0086077e-33
156	0x094c39b1	2.4582733e-33
157	0x0a22addd	7.832716e-33
158	0x09bca697	4.5416014e-33
159	0x2f78d452	2.26309e-10
160	0x1935d3cd	9.4002535e-24
161	0x092bd305	2.0682597e-33
162	0x0ac8695b	1.929893e-32
163	0x06fbedf8	9.476537e-35
164	0x8bc45c55	-7.563538e-32
165	0x24df826b	9.693177e-17
166	0x06e442de	8.586232e-35
167	0x092c5254	2.0742457e-33
168	0x098ec3e6	3.436948e-33
169	0x0aceceab	1.9914818e-32
170	0x09be7a33	4.585575e-33
171	0x182c399a	2.225956e-24
172	0x0a84a130	1.277177e-32
173	0x09d38237	5.0918856e-33
174	0x09ca3944	4.8683583e-33
175	0x8b930569	-5.663048e-32
176	0x8a0dc50a	-6.825962e-33
177	0x89dc59d0	-5.3047533e-33
178	0x0ec93180	4.9597992e-30
179	0x92ef8d4b	-1.5117852e-27
180	0x06fb7d94	9.4600227e-35
181	0x1124bce1	1.2995522e-28
182	0xa608d6d0	-4.7475604e-16
183	0x8f8aad7e	-1.3674677e-29
184	0x07dda0a9	3.3346812e-34
185	0x94b8fece	-1.8679755e-26
186	0x8ed781d9	-5.312663e-30
187	0x111cc43a	1.2366697e-28
188	0x898a6fdf	-3.3327495e-33
189	0x22d01c9f	5.6408817e-18
190	0x8dccca0a	-1.262111e-30
191	0x0963d946	2.7426293e-33
192	0x091ff16e	1.9252449e-33
193	0x9aea8ccb	-9.7007595e-23
194	0x0ae083ab	2.1619943e-32
195	0x10277839	3.302756e-29
196	0x09bd4139	4.556143e-33
197	0x0d1f59a7	4.9103573e-31
198	0x2511c7fb	1.2644501e-16
199	0x070fc780	1.0816752e-34
200	0x09ac91ea	4.154471e-33
201	0x8ac63052	-1.9084883e-32
202	0x8a1c148e	-7.514993e-33
203	0x883be8a4	-5.6546733e-34
204	0x1c1eb2ad	5.250875e-22
205	0x0a74b616	1.1782419e-32
206	0x0b447dc2	3.7842837e-32
207	0x09139fce	1.7769621e-33
208	0x0930d29a	2.1284254e-33
209	0x0abb6f07	1.8049209e-32
210	0x8963ecb0	-2.7435421e-33
211	0x1c05ac51	4.422872e-22
212	0x928ed195	-9.013126e-28
213	0x21ca8722	1.3723822e-18
214	0x058a834a	1.3025686e-35
215	0x0920dcc7	1.9363108e-33
216	0x0a034449	6.3202636e-33
217	0x098f3992	3.4480137e-33
218	0x093a7f82	2.244889e-33
219	0x1bf43f0a	4.0407152e-22
220	0x957c1e79	-5.0915033e-26
221	0x0784716f	1.9927823e-34
222	0x87dfca42	-3.3672187e-34
223	0x94e04d79	-2.2648777e-26
224	0x091e2da9	1.9040028e-33
225	0x8bb22431	-6.861756e-32
226	0x881dda6e	-4.750223e-34
227	0x8b5ce4ac	-4.2542492e-32
228	0x2a5f527a	1.9834994e-13
229	0x0a684788	1.1183847e-32
230	0x2e979e78	6.894835e-11
231	0x15ed3f88	9.582377e-26
232	0x126fd0c6	7.5672436e-28
233	0x09c6ff26	4.7906707e-33
234	0x885528a0	-6.414511e-34
235	0x8b10560a	-2.779812e-32
236	0x893717da	-2.2039039e-33
237	0x8a82ed2d	-1.260776e-32
238	0x0eb870b2	4.5468024e-30
239	0x89866731	-3.2356367e-33
240	0x881d66a0	-4.7366104e-34
241	0x29b7bb64	8.1593396e-14
242	0x8ea42d2a	-4.0472613e-30
243	0xa2aac71f	-4.628942e-18
244	0x89651ba7	-2.7577874e-33
245	0x8a53e667	-1.0202614e-32
246	0x8e6aaaef	-2.8925028e-30
247	0x891cd986	-1.8880096e-33
248	0x8c37ee22	-1.4169468e-31
249	0x09baf467	4.5007706e-33
250	0xb4a6f4a0	-3.1097898e-07
251	0x0e884f4b	3.3602945e-30
252	0x16d7d4b3	3.4869355e-25
253	0x0ce17e77	3.4742852e-31
254	0x0af485ba	2.3546648e-32
255	0x07f166e8	3.6322133e-34

gru.weight_ih_l0 f4 [384, 200]
0	0xbc30b47c	-0.010785218
1	0x3b9d08c5	0.004792305
2	0xbead81d2	-0.33888108
3	0x3dcda13a	0.10040517
4	0x3c1f7faa	0.009735027
5	0xbd679795	-0.056541044
6	0xbe1bb8a9	-0.15207161
7	0xbc8c4df3	-0.017127013
8	0x3e167efd	0.1469688
9	0x3d8da639	0.0691647
10	0xbdecd3bd	-0.11563823
11	0xbcb01dc4	-0.021498568
12	0xbbe056b2	-0.0068462724
13	0xbe163dcb	-0.1467201
14	0x3b36ee7f	0.002791315
15	0xbcf2ebf3	-0.029653525
16	0x3e4c0a36	0.1992577
17	0x3cca222a	0.024674494
18	0xbd93cc6c	-0.07216725
19	0xbd96bb57	-0.07359951
20	0xbd479f28	-0.048735768
21	0xbd17e152	-0.037080117
22	0xbd944342	-0.07239391
23	0x3b942eb9	0.0045221713
24	0x3d9100d9	0.0708024
25	0x3d9948d6	0.074845955
26	0xbdeffa95	-0.117177166
27	0x3dac40a4	0.08410767
28	0x3e402b95	0.18766625
29	0xbe24d574	-0.16097051
30	0xbd3ac487	-0.04559758
31	0xbdcb6b3b	-0.09932562
32	0xbd15512e	-0.036454372
33	0xbe6ec147	-0.23315917
34	0xbd180ce7	-0.03712168
35	0x3b7ae327	0.0038282366
36	0xbbe9138d	-0.0071129263
37	0x3ea8c551	0.3296304
38	0xbbbe3b3d	-0.0058054016
39	0x3c05d53d	0.008168516
40	0x3da0a6c7	0.0784431
41	0x3e359a6a	0.17734686
42	0xbdf12ac7	-0.11775737
43	0xbcb949a0	-0.022618115
44	0xbcb95805	-0.022624979
45	0x3cc511a2	0.02405626
46	0xbd847df7	-0.064693384
47	0x3d2eb463	0.0426525
48	0x3c80d3ba	0.01572596
49	0x3ba7aaf2	0.005116814
50	0xbd53c490	-0.05170113
51	0x3cb3f6a9	0.021968203
52	0x3eb0b81b	0.3451546
53	0xbe1d08fc	-0.15335459
54	0x3e8d5c25	0.27609363
55	0xbde2e74f	-0.11079275
56	0xbdb00011	-0.08593763
57	0xbe71ed89	-0.23625769
58	0x3e021a88	0.12705433
59	0xbdf45a93	-0.11931338
60	0xbb8bd7f0	-0.004267685
61	0xbd0c103a	-0.034195162
62	0xbbe6cd98	-0.0070435517
63	0x3ba0b6c7	0.0049046013
64	0xbe156869	-0.1459061
65	0x3d518437	0.05115148
66	0xbe2bd74d	-0.1678135
67	0xbdb20165	-0.08691672
68	0xbe155895	-0.14584573
69	0xbe722647	-0.23647414
70	0xbc88dadc	-0.016705923
71	0xbd218aad	-0.039438892
72	0x3e14ed2a	0.14543596
73	0x3cc61288	0.024178758
74	0xbe1cd62e	-0.15316078
75	0xbd68fa4c	-0.056879327
76	0xbe1d3b4d	-0.15354653
77	0x3cf10d33	0.02942524
78	0xbb04995a	-0.0020233006
79	0x3e14f596	0.14546809
80	0x3cc9fcd2	0.024656687
81	0xbddde907	-0.10835462
82	0xbdd38487	-0.10328012
83	0x3e8820d6	0.26587552
84	0x3e7eb163	0.24872355
85	0xbd5699f4	-0.052392915
86	0xbdd626eb	-0.10456642
87	0xbe193849	-0.14962877
88	0x3d4da476	0.05020567
89	0x3c615bf8	0.013754837
90	0x3dd0c3d8	0.10193604
91	0x3d5376dc	0.051627025
92	0x3df0c4c5	0.11756281
93	0xbb9c5a2f	-0.004771493
94	0xbddd0910	-0.10792744
95	0x3e244460	0.16041708
96	0x3e27a5ac	0.16371793
97	0x3c235b82	0.009970548
98	0x3bc8e657	0.0061309743
99	0x3d45a71a	0.048255064
100	0xbda5cb98	-0.08095473
101	0x3c539026	0.012912786
102	0x3d7c2406	0.061557792
103	0xbd84ac1a	-0.06478138
104	0xbdb145b3	-0.08655872
105	0x3dda37d1	0.106551774
106	0x3cca0a04	0.024662979
107	0x3ddff3e2	0.10935189
108	0x3d78957b	0.06068943
109	0xbde6b73c	-0.11265418
110	0xbccd3c56	-0.025053184
111	0xbe212e3b	-0.15740292
112	0xbd303a13	-0.043024134
113	0x3be08251	0.0068514724
114	0x3d87b3cb	0.0662609
115	0xbe2f66e5	-0.17129095
116	0x3e3529fa	0.17691794
117	0xbd0994ec	-0.03358929
118	0x3d1d51be	0.038408034
119	0xbd59150d	-0.05299859
120	0x3cf4da18	0.029889151
121	0x3e3cead4	0.18448955
122	0xbd26a05b	-0.04068027
123	0x3cfea138	0.031082734
124	0x3dd28ae8	0.102804005
125	0x3dc4c712	0.09608282
126	0x3e95215e	0.2912702
127	0x3cb12d14	0.02162794
128	0x3db4fb1b	0.08836957
129	0x3d9c716c	0.07638821
130	0xbea2650c	-0.31717718
131	0xbd6ab184	-0.0572982
132	0xbdbb52b6	-0.09146635
133	0xbd997b00	-0.074941635
134	0x3e59223a	0.21204463
135	0x3e32fa24	0.17478234
136	0x3da32177	0.07965367
137	0xbdea3e72	-0.11437692
138	0xbe39da6a	-0.18149725
139	0xbdbe570d	-0.09293947
140	0xbe3cfaf1	-0.18455102
141	0x3e86107d	0.26184455
142	0xbd75f306	-0.06004622
143	0x3d5faf60	0.05461061
144	0xbd8b2b85	-0.0679541
145	0xbc03cea3	-0.0080448715
146	0xbd8a0ee3	-0.06741121
147	0xbe535cad	-0.20640822
148	0x3d2f6843	0.04282404
149	0x3cf62a97	0.030049605
150	0xbc11811d	-0.008880881
151	0xbd971a51	-0.07378066
152	0x3bd95f82	0.0066337
153	0xbe9d4794	-0.30718672
154	0x3e191373	0.14948826
155	0xbdaedf1b	-0.08538648
156	0x3e05ee23	0.13079123
157	0x3e416767	0.18887101
158	0x3d3daa05	0.04630472
159	0x3cdbe881	0.026844265
160	0xbd6b3ace	-0.057429127
161	0xbd97c0e4	-0.07409838
162	0xbd0ac863	-0.03388251
163	0x3e031e25	0.12804468
164	0x3d72fa20	0.05932057
165	0x3df40be1	0.11916328
166	0x3d52811b	0.051392656
167	0xbd8752e5	-0.06607608
168	0xbda9d5bd	-0.082927205
169	0x3e0a125d	0.13483568
170	0x3dd0859f	0.10181736
171	0x3c92face	0.017941859
172	0xbd8691ba	-0.06570764
173	0x3e08c102	0.13354877
174	0x3e065902	0.13119891
175	0xbdf2debf	-0.11858892
176	0x3d3375c7	0.043813493
177	0x3d0ee27c	0.03488396
178	0xbdbfd74c	-0.093672365
179	0x3e37b52a	0.17940202
180	0xbe16b79f	-0.14718483
181	0x3ea61669	0.32438973
182	0xbe231e28	-0.15929472
183	0xbc9fbbf2	-0.019498799
184	0x3c8a6465	0.016893575
185	0x3ce4ce2c	0.027930342
186	0xbcbf2260	-0.023331821
187	0x3db2b355	0.08725611
188	0x3caf593a	0.021404851
189	0xbc84b0a9	-0.01619752
190	0xbd34c4de	-0.04413306
191	0x3cd28aa0	0.025700867
192	0x3ca7aa77	0.020467026
193	0xbded6d4d	-0.11593113
194	0xbcb05594	-0.021525182
195	0xbd7fb992	-0.062432833
196	0x3cc16acb	0.023610493
197	0xbe3e5d6e	-0.18590328
198	0xbe3d1170	-0.18463683
199	0x3bb792dc	0.005602224
200	0x3d9219c9	0.071338244
201	0xbc08dc8d	-0.008353365
202	0x3d74b081	0.05973864
203	0x3c06ee27	0.008235491
204	0xbc792cbd	-0.01520842
205	0xbc0a00a9	-0.008423009
206	0xbd3ba87a	-0.04581497
207	0xbda5e190	-0.08099663
208	0x3d981031	0.07424963
209	0xbc81a1de	-0.015824255
210	0x3c5c6c85	0.013453607
211	0x3dd8aba7	0.10579615
212	0xbd9ae921	-0.07563997
213	0x3cecd82a	0.028911669
214	0x3e1844a1	0.1486993
215	0x3d564909	0.052315746
216	0xbd105cd2	-0.03524477
217	0xbd352040	-0.04422021
218	0xbdc7a93c	-0.09749076
219	0xbcb368ed	-0.021900618
220	0x3d7c223c	0.061556086
221	0x3d52e3ee	0.051486902
222	0x3d97b2bd	0.074071385
223	0x3de9dad4	0.11418691
224	0xbd285cc5	-0.041104097
225	0xbdfc7fff	-0.12329101
226	0xbce63bef	-0.02810475
227	0xbd9c4ed6	-0.07632224
228	0xbde2d6d4	-0.110761315
229	0xbdb0ecc4	-0.086389095
230	0xbdf93b86	-0.12169556
231	0xbdcbab81	-0.09944821
232	0x3d1f1508	0.038838416
233	0x3da653d6	0.08121459
234	0xbc88c4b9	-0.016695367
235	0xba83d9be	-0.0010059399
236	0xbb86bee0	-0.0041121095
237	0xbdbe23bf	-0.09284162
238	0x3dbfbc23	0.09362056
239	0x3c589b8a	0.013220677
240	0xbdb69725	-0.08915547
241	0x3e44f829	0.1923529
242	0x3e263dd9	0.1623453
243	0xbd01d8b5	-0.03170081
244	0x3c6c944b	0.014439653
245	0x3da1b699	0.07896156
246	0xbcd27b7e	-0.025693651
247	0x3d13163b	0.035909873
248	0x3c8a135d	0.016854936
249	0xbb41c755	-0.0029568274
250	0x3d801cb4	0.06255475
251	0x3db6aeca	0.08920057
252	0xbdc401a8	-0.095706284
253	0xbdd24aef	-0.10268199
254	0x3e164320	0.14674044
255	0xbd339e87	-0.043852355

gru.weight_hh_l0 f4 [384, 128]
0	0x3e700a87	0.23441516
1	0xbd689150	-0.056779206
2	0xbd19284f	-0.037391957
3	0xbe01a5e3	-0.12660937
4	0x3e004793	0.12527303
5	0x3a029315	0.00049810234
6	0x3d4ce831	0.050026122
7	0xbea7dd61	-0.32786086
8	0x3e2da46f	0.16957258
9	0xbd303ca7	-0.043026593
10	0x3e1d5bf7	0.15367113
11	0x3db9641f	0.090523
12	0x3e2a0ee6	0.16607246
13	0x3e8412b5	0.25795522
14	0xbe022760	-0.12710333
15	0x3ea0411c	0.31299675
16	0xbe0ae8b3	-0.1356533
17	0x3e4d1bfe	0.2003021
18	0xbe3a6a35	-0.18204577
19	0x3eab223a	0.3342455
20	0x3df7487f	0.120743744
21	0xbe25c2ca	-0.16187587
22	0x3e327734	0.17428285
23	0x3db493f6	0.08817284
24	0x3e2216c7	0.15829001
25	0x3d901afd	0.070363976
26	0xbdecb7e9	-0.115585156
27	0xbbb99aa9	-0.005664189
28	0xbdd14107	-0.10217481
29	0xbc74dc15	-0.01494505
30	0x3ead7bc2	0.33883482
31	0x3e53f57f	0.20699118
32	0xbdfed1f6	-0.124423906
33	0xbe8028e8	-0.2503121
34	0xbd1db5d2	-0.038503475
35	0x3db1f75e	0.0868976
36	0xbe8d00c8	-0.2753966
37	0xbdeaa7ef	-0.11457812
38	0xbdea56f9	-0.1144237
39	0x3d4d4ba7	0.050120976
40	0x3e0a0bbe	0.13481042
41	0xbea1a7b3	-0.31573257
42	0x3dae16f7	0.08500474
43	0xbd9058e0	-0.070482016
44	0xbd27e5c9	-0.040990625
45	0xbe6b6778	-0.22988689
46	0xbe02e7e0	-0.12783766
47	0xbe6dbc99	-0.23216476
48	0x3eb8ec60	0.3611784
49	0x3d2ea985	0.042642135
50	0xbd943ea9	-0.07238514
51	0xbeaac629	-0.3335431
52	0xbe9e2337	-0.30886242
53	0x3db33e7a	0.08752151
54	0x3cc68784	0.02423454
55	0x3e203c94	0.15648109
56	0x3ea851aa	0.32874805
57	0xbda6d828	-0.08146697
58	0x3e07ff72	0.13281038
59	0x3e4f610c	0.20251864
60	0x3c8453b7	0.0161532
61	0x3de6ad16	0.11263482
62	0x3e07d4f5	0.1326483
63	0xbe49f4ef	-0.19722341
64	0x3e56739b	0.20942537
65	0x3e994a04	0.29939282
66	0x3de715fe	0.112834916
67	0x3ccf2f31	0.025291057
68	0xbe41a251	-0.18909575
69	0x3da07368	0.07834512
70	0x3e03fb98	0.12888944
71	0x3d891c48	0.06694847
72	0x3e45e9b2	0.19327429
73	0xbe22af8a	-0.15887275
74	0x3eb5972f	0.35466906
75	0xbd23605f	-0.03988683
76	0x3e0cb6c1	0.1374159
77	0xbe2f7587	-0.17134677
78	0x3dcf65d2	0.101268426
79	0xbd38bd0c	-0.045102164
80	0x3d3636b3	0.04448576
81	0x3e0432cf	0.12910007
82	0x3e2724ce	0.16322634
83	0xbe0fe87d	-0.14053531
84	0x3c117330	0.0088775605
85	0x3e9bf5a8	0.30460858
86	0xbe529c87	-0.20567523
87	0xbbaadb3c	-0.005214123
88	0x3e2567c7	0.16152869
89	0xbd839c41	-0.064262874
90	0x3e8c104c	0.27356184
91	0x3e355ff5	0.17712386
92	0xbd9b3e26	-0.07580213
93	0xbd1237ff	-0.035697933
94	0x3d59e1ac	0.053193733
95	0xbda7135c	-0.081579894
96	0x3d8320cd	0.06402741
97	0xbddc2ff6	-0.10751335
98	0x3db63ff2	0.08898915
99	0x3d96b285	0.07358269
100	0x3e9d14fa	0.30680066
101	0x3ccd532e	0.025064077
102	0xbdcc1d51	-0.09966529
103	0x3d1f6edf	0.038924094
104	0xbe0359fe	-0.12827298
105	0xbd9e9dd6	-0.077449486
106	0x3e971128	0.29505277
107	0xbecd0d8d	-0.400494
108	0x3d3de850	0.04636413
109	0xbdf3f51d	-0.11911986
110	0x3dd07752	0.101790085
111	0x3d2e6be3	0.042583358
112	0xbe6d986e	-0.23202679
113	0x3df40969	0.11915857
114	0x3d1a16aa	0.03761927
115	0xbeb13e7a	-0.34617978
116	0x3e081ff2	0.13293436
117	0x3c3a75f4	0.011380661
118	0xbd40ad57	-0.04704031
119	0x3d0c451f	0.034245607
120	0xbc2938cd	-0.010328484
121	0xbcd5bd98	-0.026091382
122	0x3c9e9389	0.01935746
123	0xbd58363f	-0.052786108
124	0x3d2ce19d	0.04220735
125	0xbd9ea5cb	-0.07746466
126	0xbbbf063e	-0.0058296015
127	0x3d7cc078	0.06170699
128	0xbeb67ca1	-0.3564196
129	0x3c8be2fa	0.017076004
130	0x3c592fa7	0.01325599
131	0xbd52d214	-0.051469877
132	0x3e226dae	0.15862152
133	0x3e331b2c	0.17490834
134	0x3c75da47	0.015005655
135	0x3e5f75ec	0.21822327
136	0x3df2c780	0.11854458
137	0x3eb74d76	0.35801286
138	0xbd4bd026	-0.049759053
139	0xbda1c136	-0.0789818
140	0xbdca4c31	-0.098778136
141	0xbe895de6	-0.2682945
142	0xbd905663	-0.07047727
143	0x3ea68c58	0.3252895
144	0xbe3d5ae2	-0.184917
145	0xbdb1dad2	-0.08684315
146	0x3de3ce9b	0.11123391
147	0x3d92ae84	0.071621925
148	0xbe708f9f	-0.23492287
149	0xbda2fec3	-0.07958748
150	0x3caa2fb4	0.0207747
151	0xbea6f29a	-0.32606965
152	0x3e8b3f97	0.27196953
153	0x3e21d9ca	0.15805736
154	0xbda7c3ad	-0.08191619
155	0xb9c5d4e2	-0.00037733378
156	0x3e2a8e41	0.16655828
157	0xbe8a12fd	-0.26967612
158	0x3d98804c	0.07446346
159	0xbddab9c5	-0.10679964
160	0xbdc68086	-0.09692483
161	0x3e5d7aa0	0.21628809
162	0x3e03cf7a	0.12872115
163	0x3cab7645	0.020930419
164	0xbde4001e	-0.11132835
165	0xbecc140f	-0.39859053
166	0xbdee5c93	-0.11638751
167	0xbeb6961b	-0.35661396
168	0xbe78d515	-0.24300034
169	0x3ed64a48	0.41853547
170	0x3c6fc91f	0.014635353
171	0x3c0919c5	0.00836796
172	0x3e01de1c	0.12682384
173	0x3d072cb5	0.03300162
174	0x3ca565bc	0.020190112
175	0xbe11551a	-0.1419262
176	0x3d03d0df	0.032181617
177	0xbde9f688	-0.11423975
178	0x3cca9810	0.024730712
179	0x3e1cc9fc	0.15311426
180	0xbd71da3a	-0.059046008
181	0x3ce78e42	0.028266076
182	0x3e858de5	0.2608482
183	0xbe9e898b	-0.30964312
184	0xbcf8713b	-0.03032743
185	0xbd4fc92d	-0.050728966
186	0xbe2f7a2a	-0.17136446
187	0x3d00c47d	0.031437386
188	0x3d8eeb67	0.06978493
189	0xbe8edca2	-0.27902704
190	0xbd07a3f4	-0.033115342
191	0xbd143c53	-0.036190342
192	0x3e99c413	0.30032405
193	0xbd9ab2e6	-0.075536534
194	0x3e4ced0f	0.20012306
195	0xbd9833f1	-0.07431782
196	0xbe58d700	-0.21175766
197	0x3e41fc62	0.18943933
198	0xbe498e4a	-0.19683185
199	0xbd364b26	-0.04450526
200	0x3e4ee446	0.20204267
201	0x3e1ec1b9	0.15503587
202	0x3e9af134	0.30262148
203	0xbb514e8e	-0.0031937691
204	0x3d05ed32	0.03269691
205	0x3e3fa0e7	0.18713723
206	0xbe6172a2	-0.22016385
207	0x3ebaaf0f	0.36461684
208	0xbda7bc76	-0.08190243
209	0x3cb9649e	0.022630986
210	0x3e4adeb7	0.19811521
211	0x3e99935a	0.29995233
212	0xbdb09d46	-0.086237475
213	0x3d213b04	0.039362922
214	0xbe33a5cf	-0.1754372
215	0xbe386a33	-0.18009262
216	0x3e4b562d	0.19857092
217	0x3e3d2029	0.184693
218	0xbc05f224	-0.008175407
219	0x3dd6df70	0.10491836
220	0xbe890c35	-0.26767126
221	0x3c893dd8	0.016753122
222	0xbeb4f752	-0.3534494
223	0xbdbf1562	-0.0933025
224	0xbdd8a79e	-0.105788454
225	0x3e247db7	0.16063581
226	0x3d906cfd	0.07052038
227	0x3d5d3b19	0.054011438
228	0xbe122776	-0.14272866
229	0x3de916f0	0.11381328
230	0xbe0d3b4a	-0.13792148
231	0xbe332697	-0.1749519
232	0x3edc5412	0.4303289
233	0x3c117f88	0.0088805035
234	0xbe4a8933	-0.197789
235	0xbe8542e0	-0.26027584
236	0xbdac890d	-0.08424578
237	0xbdfb5498	-0.12271994
238	0x3e1d5e0f	0.15367912
239	0x3e9a7d4a	0.30173713
240	0xbe90d4d4	-0.28287375
241	0xbe716135	-0.23572238
242	0x3e769a20	0.24082232
243	0xbd9f58e5	-0.07780627
244	0xbd492601	-0.04910851
245	0x3e4da544	0.20082575
246	0x3ed539fd	0.41645804
247	0x3bcb5e40	0.006206304
248	0xbe1c1129	-0.15240921
249	0xbcdad55f	-0.026713071
250	0x3d9f25f6	0.07770912
251	0xbde52689	-0.111889906
252	0xbe35e125	-0.17761667
253	0xbc6685ec	-0.014070015
254	0xbcbece3f	-0.023291705
255	0x3deb48f2	0.114885226

gru.bias_ih_l0 f4 [384]
0	0xbd6ada52	-0.057337113
1	0xbd443f41	-0.047911886
2	0xbe199e2b	-0.15001743
3	0xbe71b88d	-0.23605557
4	0xbbf22879	-0.0073900786
5	0x3dcb92d7	0.09940117
6	0x3dac58fb	0.08415409
7	0xbd3c9342	-0.046038873
8	0x3d67ae96	0.056562982
9	0x3e149f15	0.1451381
10	0x3db635e1	0.08896995
11	0x3b875741	0.0041302745
12	0x3da52efa	0.08065601
13	0xbc519cc0	-0.01279372
14	0xbdc5b7cc	-0.09654197
15	0x3e59afd2	0.21258476
16	0x3dffac37	0.12484019
17	0x3e5a9c7e	0.2134876
18	0x3e725bc9	0.23667826
19	0xbcfa5fcf	-0.030563263
20	0x3dc3685f	0.095413916
21	0xbd9ede9d	-0.07757304
22	0x3df3f640	0.11912203
23	0x3d10ad66	0.035321616
24	0x3e20052f	0.15626977
25	0xbda4df07	-0.080503516
26	0x3d39d72e	0.045371227
27	0xbb28fdb8	-0.0025785994
28	0xbda1830c	-0.07886323
29	0x3e2d9038	0.16949546
30	0x3c0ceb70	0.008601055
31	0x3e0b6bf9	0.13615407
32	0x3de147f9	0.11000056
33	0xbdf2e5a2	-0.11860205
34	0x3d9773fd	0.0739517
35	0x3e3985d8	0.18117464
36	0x3d1ec6c0	0.03876376
37	0x3da3901e	0.079864725
38	0xbbd3b5e9	-0.0064608944
39	0x3df1ec8f	0.11812698
40	0x3e037b44	0.12839991
41	0x3d2e1e5f	0.042509433
42	0x3e9bce3c	0.30430782
43	0x3dd694f6	0.10477631
44	0x3dfb492b	0.12269815
45	0x3e365192	0.17804554
46	0x3dde2479	0.108468
47	0x3d0921ae	0.033479385
48	0xbd854126	-0.06506567
49	0x3cf890b4	0.030342437
50	0xbcfc1647	-0.030772341
51	0x3dcb2f6c	0.099211544
52	0x3a4ca35c	0.0007806325
53	0x3d9edfcc	0.077575296
54	0x3e20c985	0.15701874
55	0x3dcfca8d	0.10146055
56	0xbde747fc	-0.11293027
57	0xbbbc1113	-0.00573934
58	0x3d73d047	0.0595248
59	0xbd8875d6	-0.066631004
60	0x3c9c5f74	0.019088484
61	0x3e37cb96	0.17948756
62	0x3dbf9589	0.093546934
63	0xbd3e5b17	-0.04647359
64	0x3c547cc2	0.012969198
65	0x3d492aaa	0.049112953
66	0xbdd2c209	-0.102909155
67	0x3e1eda11	0.15512873
68	0x3e034fc6	0.128234
69	0x3cfe1791	0.031017097
70	0x3e876df3	0.26451072
71	0x3e3ccc8f	0.18437408
72	0x3e6f5382	0.233717
73	0x3dc9cf8e	0.09854041
74	0xbd7bd917	-0.06148633
75	0x3e095220	0.13410234
76	0xbdf2db7f	-0.11858272
77	0x3d7be4b1	0.061497394
78	0x3d607635	0.05480023
79	0x3e7fcc1a	0.24980202
80	0x3d59a1a5	0.053132672
81	0x3e73cac1	0.23807813
82	0xbd626ca4	-0.05527939
83	0x3dc3ea5e	0.09566186
84	0xba3c7216	-0.0007188631
85	0xbc6cc7d7	-0.014451942
86	0x3e40f612	0.18843868
87	0x3e34d1ef	0.17658208
88	0xbc5df03b	-0.013546045
89	0x3d99608a	0.074891165
90	0x3dfee2fd	0.12445638
91	0x3d8def54	0.06930414
92	0x3e2471f8	0.160591
93	0x3c18766d	0.009305579
94	0x3d8aa865	0.067704
95	0x3de5c437	0.11219066
96	0x3e58d697	0.2117561
97	0x3d3e342e	0.04643648
98	0xbadf388a	-0.00170304
99	0x3eb216c7	0.34783003
100	0x3e9ba016	0.30395573
101	0x3e9bf321	0.3045893
102	0x3d8641bc	0.065555066
103	0x3e47ce26	0.19512233
104	0x3da2a518	0.079416454
105	0x3d5e527b	0.05427788
106	0xb8d74f4d	-0.0001026677
107	0x3d396214	0.04525955
108	0x3d8a5ffa	0.06756587
109	0x3df487e9	0.11939985
110	0x3d61dc5b	0.055141788
111	0x3d1f13c5	0.038837213
112	0x3e2fee71	0.17180802
113	0x3e3e4ccb	0.18583982
114	0x3ec8439d	0.39114085
115	0xbe1c15bd	-0.15242667
116	0x3d657bec	0.056026384
117	0x3de6bbea	0.112663105
118	0x3c86b715	0.016444722
119	0x3cb1e05c	0.021713428
120	0xbdc3c155	-0.095583595
121	0x3de13729	0.10996849
122	0x3e278f8d	0.16363354
123	0xbd1ea8b8	-0.03873512
124	0x3d99d57c	0.07511422
125	0x3e014f02	0.12627795
126	0x3de8d830	0.113693595
127	0x3e16fa2f	0.14743875
128	0xbeb26006	-0.34838885
129	0xbeae16b8	-0.34001708
130	0xbeefca6d	-0.46834126
131	0xbdf7ea97	-0.12105291
132	0xbe10e1cd	-0.14148636
133	0xbefe4250	-0.49659967
134	0xbe839794	-0.25701582
135	0xbc877e7d	-0.016539807
136	0xbe2656ac	-0.16244
137	0x3d1ad252	0.037798233
138	0xbd947253	-0.07248368
139	0xbd019ab9	-0.031641696
140	0xbea4e96d	-0.3220934
141	0xbef48041	-0.477541
142	0xbe8c4379	-0.27395228
143	0xbd294837	-0.041328635
144	0xbe16cb49	-0.14725985
145	0xbd44a190	-0.04800564
146	0xbe1e9aa7	-0.15488683
147	0xbc611699	-0.013738298
148	0xbc95ae44	-0.018271573
149	0xbf15f5e3	-0.5857832
150	0xbe8605ed	-0.26176396
151	0x3caf3740	0.02138865
152	0xbcced582	-0.025248293
153	0x3e803c77	0.2504613
154	0xbd93bd97	-0.07213896
155	0xbf1564a1	-0.5835667
156	0xbf2022c4	-0.6255305
157	0xbe3f8db4	-0.18706399
158	0x3cba6fed	0.022758448
159	0x3cba79cf	0.022763161
160	0xbeb19879	-0.3468664
161	0xbf821ae7	-1.016446
162	0xbeb1d6c3	-0.34734163
163	0xbe786e36	-0.24260792
164	0x3d01d0ab	0.031693142
165	0x3de9559b	0.11393281
166	0x3d4c64fa	0.049900986
167	0xbda35834	-0.07975808
168	0xbdd682c4	-0.1047416
169	0xbe8a6443	-0.2702962
170	0xbee6e334	-0.45095217
171	0xbe4ae888	-0.19815266
172	0xbe1c76cb	-0.15279691
173	0xbcfd7c27	-0.03094299
174	0xbdd1a993	-0.10237422
175	0xbeeb1b74	-0.45919383
176	0xbee4ba65	-0.44673458
177	0xbcfdc1cb	-0.030976197
178	0xbe8fd0b6	-0.2808892
179	0x3c1c97a4	0.009557638
180	0x3e7e48ca	0.24832454
181	0x3e87983d	0.26483336
182	0x3d066ee5	0.0328206
183	0xbe330085	-0.17480667
184	0xbe36f118	-0.17865407
185	0x3d8513f9	0.0649795
186	0xbe274855	-0.16336186
187	0xbe8dd85f	-0.2770414
188	0x3d884116	0.06653039
189	0x3e9023db	0.28152356
190	0xbea8f70c	-0.33000982
191	0xbe5817be	-0.21102807
192	0xbe309fc8	-0.17248452
193	0x3e4abcec	0.1979863
194	0xbd14af8e	-0.036300234
195	0xbed4b1d0	-0.4154191
196	0xbe35f834	-0.17770463
197	0xbe1566a8	-0.14589942
198	0xbd2a95d6	-0.0416468
199	0xbdd734b2	-0.10508098
200	0xbe2eb9a8	-0.1706301
201	0xbea93452	-0.3304773
202	0xbee968e1	-0.4558783
203	0xbca3fd4c	-0.020018242
204	0xbec6943c	-0.3878497
205	0xbe87762c	-0.26457345
206	0xbe8727fc	-0.26397693
207	0xbcc80f54	-0.024421372
208	0xbed81cb0	-0.42209387
209	0x3e4b60fc	0.19861215
210	0x3da25464	0.079262525
211	0x3d9193fb	0.07108303
212	0x3b00da52	0.001966138
213	0xbe921801	-0.2853394
214	0xbe2bd769	-0.16781391
215	0x3e019681	0.12655069
216	0xbdba16be	-0.09086369
217	0xbdd47ca5	-0.103753366
218	0x3dbab990	0.091174245
219	0xbe246e34	-0.16057664
220	0x3d05019f	0.03247225
221	0xbd5ae0b7	-0.05343696
222	0xbe4a76af	-0.19771837
223	0xbc4f29a7	-0.012644208
224	0x3d117cb7	0.035519328
225	0xbc706f2a	-0.014674941
226	0xbd2daf11	-0.042403284
227	0x3e57b527	0.21065198
228	0x3dce9b7c	0.1008825
229	0xbd8d5999	-0.06901855
230	0xbe5133c8	-0.20429909
231	0xbde237b9	-0.110457845
232	0xbea352a7	-0.31898996
233	0x3dc83e69	0.09777529
234	0xbe997b4c	-0.2997688
235	0xbda8ae81	-0.08236409
236	0xbec3f3f7	-0.38272068
237	0x3bb43d47	0.005500469
238	0xbe71b23c	-0.23603147
239	0xbe5adfdb	-0.21374457
240	0xbe0670b5	-0.13128932
241	0xbe62d017	-0.22149692
242	0xbeee98f9	-0.46601084
243	0xbeec9f3b	-0.46215233
244	0xbeff6d27	-0.49887964
245	0xbda76d08	-0.08175093
246	0xbeee6cb5	-0.46567312
247	0xbc7c7f85	-0.015411262
248	0xbe315b06	-0.17319879
249	0x3eb6e043	0.35717973
250	0xbe237c88	-0.15965474
251	0xbec0c1e5	-0.3764793
252	0xbd077995	-0.033074934
253	0xbdbf9648	-0.09354836
254	0x3d8ec8a6	0.069718644
255	0x3c1e4ed3	0.009662348

gru.bias_hh_l0 f4 [384]
0	0xbd69462d	-0.05695169
1	0xbd44be46	-0.04803302
2	0xbe1943f1	-0.14967324
3	0xbe716257	-0.2357267
4	0xbbf5aa88	-0.0074971355
5	0x3dc3c494	0.09558979
6	0x3dae3053	0.08505311
7	0xbd3d24fb	-0.046177845
8	0x3d692cbb	0.056927424
9	0x3e149a9f	0.14512108
10	0x3dbab565	0.091166295
11	0x3b8765bd	0.004132001
12	0x3da4c55a	0.08045454
13	0xbbc8fc4a	-0.006133591
14	0xbdba0020	-0.09082055
15	0x3e59739c	0.21235508
16	0x3e0035bd	0.125205
17	0x3e5a782c	0.21334904
18	0x3e719972	0.23593691
19	0xbd005243	-0.03132845
20	0x3dc3a38e	0.0955268
21	0xbdab8fe6	-0.08377056
22	0x3df2c0fd	0.11853216
23	0x3d0edf91	0.03488118
24	0x3e1f5868	0.15561068
25	0xbda4ece0	-0.08052993
26	0x3d3a5e91	0.04550034
27	0xbb961039	-0.0045795706
28	0xbd99294a	-0.074785784
29	0x3e2cea5d	0.16886277
30	0x3c06a2d2	0.00821753
31	0x3e0bdccb	0.13658445
32	0x3ddca9ac	0.1077455
33	0xbded9b2c	-0.11601862
34	0x3d9e7258	0.07736653
35	0x3e3911cb	0.18073194
36	0x3d20f75a	0.039298393
37	0x3da379c2	0.07982208
38	0xbbe072d9	-0.0068496284
39	0x3df0faca	0.11766584
40	0x3e03dee0	0.12877989
41	0x3d354ef0	0.044264734
42	0x3e9eb4d4	0.30997336
43	0x3dd69642	0.10477878
44	0x3df99641	0.12186862
45	0x3e36adff	0.17839812
46	0x3ddeb4ae	0.10874306
47	0x3d0513f3	0.03248973
48	0xbd77cf99	-0.060500715
49	0x3cf7b0c5	0.030235657
50	0xbcfbf421	-0.030756058
51	0x3dca1e0d	0.09869013
52	0xb817dc43	-3.620634e-05
53	0x3d9ee6c6	0.0775886
54	0x3e20dc20	0.15708971
55	0x3dcfbc6a	0.10143359
56	0xbde73e00	-0.112911224
57	0xbbb81f58	-0.005618971
58	0x3d6754f0	0.056477487
59	0xbd84abb5	-0.06478063
60	0x3c9bf6f7	0.01903866
61	0x3e37d828	0.17953551
62	0x3dbb89a0	0.09157109
63	0xbd40a786	-0.047034763
64	0x3c50304d	0.012706828
65	0x3d4e0e3c	0.050306544
66	0xbdd32e20	-0.10311532
67	0x3e185e7b	0.14879791
68	0x3e035530	0.12825465
69	0x3cfaa830	0.030597776
70	0x3e8772a7	0.2645466
71	0x3e3c7992	0.1840575
72	0x3e6f53c5	0.233718
73	0x3dcdd67f	0.100506775
74	0xbd7a2a84	-0.061075702
75	0x3e095fc2	0.13415435
76	0xbdf91327	-0.12161856
77	0x3d81fdac	0.06347212
78	0x3d5cebea	0.053935923
79	0x3e7fdf2b	0.24987476
80	0x3d5b3d43	0.05352522
81	0x3e739d60	0.23790503
82	0xbd613770	-0.05498451
83	0x3dc47097	0.09591787
84	0xba78a40e	-0.0009484895
85	0xbc6b9b2e	-0.014380259
86	0x3e40d1bc	0.18830007
87	0x3e35fc42	0.1777201
88	0xbc577f0d	-0.01315285
89	0x3d984761	0.074354894
90	0x3e002bd6	0.12516722
91	0x3d8dcea2	0.06924178
92	0x3e226939	0.15860452
93	0x3c15d9f8	0.009146206
94	0x3d896023	0.0670779
95	0x3de69b73	0.11260118
96	0x3e57f342	0.21088889
97	0x3d3ce0d9	0.04611287
98	0xbb422011	-0.0029621164
99	0x3eb21489	0.34781292
100	0x3e9be36b	0.30446944
101	0x3e9bcf67	0.30431673
102	0x3d85ad15	0.065271534
103	0x3e485f54	0.19567615
104	0x3da29f22	0.079405084
105	0x3d6087e7	0.054817107
106	0xbadb84c5	-0.0016747942
107	0x3d41bf26	0.047301434
108	0x3d890665	0.06690673
109	0x3df70609	0.12061698
110	0x3d611c07	0.05495837
111	0x3d1f298d	0.038857985
112	0x3e2f31ed	0.17108889
113	0x3e3ebc58	0.18626535
114	0x3ec9fa83	0.39448938
115	0xbe1b666d	-0.15175791
116	0x3d688e29	0.0567762
117	0x3de6c8bb	0.11268755
118	0x3c8079a2	0.015682999
119	0x3ca8bfff	0.020599363
120	0xbdc46283	-0.09589102
121	0x3de17afe	0.11009787
122	0x3e279c3b	0.16368191
123	0xbd26dac9	-0.040735994
124	0x3d99f958	0.07518262
125	0x3e00f778	0.12594402
126	0x3de89e9d	0.11358378
127	0x3e17d30a	0.14826599
128	0xbeb35909	-0.35028866
129	0xbea69a05	-0.32539383
130	0xbef86261	-0.48512557
131	0xbe103fce	-0.1408684
132	0xbe13ba6a	-0.1442658
133	0xbf04316d	-0.5163792
134	0xbe84c870	-0.25934172
135	0x3b738778	0.0037159603
136	0xbe3370ac	-0.1752345
137	0x3c18b4cb	0.009320448
138	0xbdd58231	-0.10425223
139	0xbd455f4f	-0.048186596
140	0xbea0c4bd	-0.314001
141	0xbeefdfdc	-0.4685048
142	0xbe89070f	-0.26763198
143	0xbd6afd15	-0.057370264
144	0xbe2027ac	-0.15640134
145	0xbd6830e1	-0.05668724
146	0xbe23f1f4	-0.16010267
147	0xbc99ee41	-0.018790366
148	0xbcdddb37	-0.027082069
149	0xbf10954b	-0.56477803
150	0xbe848c4c	-0.25888288
151	0x3cfea9e6	0.031086873
152	0xbd4d60c5	-0.050141115
153	0x3e74bf07	0.23900996
154	0xbda4ecad	-0.08052955
155	0xbf0cf3ac	-0.55059314
156	0xbf1ff31b	-0.62480325
157	0xbe373896	-0.1789268
158	0x3b18854c	0.002327281
159	0x3cb77a5b	0.02239721
160	0xbeaba77c	-0.33526218
161	0xbf80576f	-1.0026683
162	0xbeb4f5b5	-0.3534371
163	0xbe61364e	-0.21993372
164	0x3cfe143d	0.03101551
165	0x3ddeb4ee	0.10874353
166	0x3d1fc7be	0.03900885
167	0xbda5d4c5	-0.08097223
168	0xbdda3c8a	-0.10656078
169	0xbe8e6919	-0.27814558
170	0xbef1df5c	-0.47240722
171	0xbe42108f	-0.18951629
172	0xbe1a52f6	-0.1507071
173	0xbd0c3fd9	-0.034240577
174	0xbdb266ac	-0.08710989
175	0xbef24c0e	-0.4732365
176	0xbeda1b2f	-0.42598864
177	0xbd1c1b13	-0.038111757
178	0xbe8f68ef	-0.28009745
179	0xbbd2cb08	-0.0064328946
180	0x3e6d2a6a	0.23160711
181	0x3e7ffe58	0.24999368
182	0x3d03f8fa	0.032219864
183	0xbe2ed196	-0.17072138
184	0xbe2df898	-0.16989362
185	0x3d81e5e2	0.06342675
186	0xbe22eace	-0.15909883
187	0xbe89b2ff	-0.26894376
188	0x3d8a9519	0.06766719
189	0x3e974f36	0.2955262
190	0xbeaa7444	-0.3329183
191	0xbe69ea95	-0.22843392
192	0xbe266be3	-0.16252093
193	0x3e620b5b	0.22074644
194	0xbd1202cd	-0.035647202
195	0xbeccc27e	-0.39992136
196	0xbe34d6cb	-0.17660062
197	0xbe14880d	-0.14505024
198	0xbd2c65ca	-0.04208926
199	0xbde8ad5d	-0.113611914
200	0xbe470f74	-0.19439489
201	0xbea5269e	-0.32256025
202	0xbee759c8	-0.45185685
203	0xbcea1110	-0.02857259
204	0xbec3b05f	-0.38220498
205	0xbe89a6be	-0.26885027
206	0xbe84d12e	-0.2594084
207	0xbd10c6bb	-0.035345774
208	0xbece6570	-0.40311766
209	0x3e4d1962	0.20029214
210	0x3d5fc649	0.05463246
211	0x3d75928c	0.05995421
212	0x3c80a3c6	0.015703093
213	0xbe953e7a	-0.29149228
214	0xbe3181e0	-0.173347
215	0x3ddce08a	0.10785015
216	0xbdad70d4	-0.08468786
217	0xbdd52d18	-0.104089916
218	0x3d8bb289	0.06821162
219	0xbe2d5ad1	-0.16929175
220	0x3d2d0444	0.042240396
221	0xbd52d6d1	-0.051474396
222	0xbe4db7e8	-0.20089686
223	0xbc8200f2	-0.015869591
224	0x3d4b4c2e	0.049633197
225	0xbc9e3d4a	-0.019316334
226	0xbd38b02c	-0.045089886
227	0x3e55fa54	0.20896274
228	0x3dcbb9f3	0.099475764
229	0xbd8a2801	-0.067459114
230	0xbe69e1c5	-0.2284003
231	0xbdec7a7f	-0.11546802
232	0xbea47220	-0.3211832
233	0x3dda26cb	0.106519304
234	0xbe9c10d1	-0.3048158
235	0xbd91d31d	-0.07120345
236	0xbec887ec	-0.391662
237	0xbcbfba1d	-0.023404175
238	0xbe76fffa	-0.24121085
239	0xbe4f6be2	-0.20255998
240	0xbe0c4eef	-0.13701986
241	0xbe5b926b	-0.21442573
242	0xbef0d722	-0.47039133
243	0xbee2d1dd	-0.44300738
244	0xbefe6a6d	-0.4969057
245	0xbdb45683	-0.08805563
246	0xbef0aa6a	-0.47005016
247	0xbb888806	-0.004166606
248	0xbe473f18	-0.19457662
249	0x3eb673b0	0.35635138
250	0xbe195691	-0.14974429
251	0xbec533ed	-0.3851618
252	0xbc384846	-0.0112477
253	0xbdb7989b	-0.08964654
254	0x3d8a6348	0.06757218
255	0x3c938bb3	0.01801095

classifier.weight f4 [66, 128]
0	0xbd441081	-0.0478673
1	0xbe04227c	-0.1290378
2	0x3d9a0521	0.075205095
3	0xbc3fa6a1	-0.011697442
4	0x3d90aa10	0.07063687
5	0xbb417971	-0.0029521848
6	0x3c9b9d7b	0.018995991
7	0xbcb3fd0c	-0.021971248
8	0xbd13d119	-0.036088083
9	0x3c31ec3c	0.010859545
10	0x3d3fdee9	0.046843443
11	0xbb8314ba	-0.0040002735
12	0x3cd305f8	0.025759682
13	0xbd4699ee	-0.048486643
14	0x3c75828a	0.014984736
15	0x3da6d5bf	0.081462376
16	0x3d0f17d0	0.03493482
17	0xbc9ec701	-0.019382002
18	0x3dd35378	0.10318655
19	0xbd49c4c9	-0.049259935
20	0x3d68f5b3	0.056874942
21	0xbbb1b8cf	-0.005423642
22	0xbb4248e0	-0.0029645488
23	0x3c1d3347	0.009594745
24	0xbc52027e	-0.012817977
25	0x3d272713	0.04080875
26	0xbd187389	-0.037219558
27	0xbd2c10e4	-0.042008296
28	0xbd95c1c5	-0.07312349
29	0xbd957844	-0.072983295
30	0xbd0c3468	-0.034229666
31	0xbc057674	-0.008145917
32	0x3da487a9	0.080336876
33	0xbd29cf73	-0.041457605
34	0xbd9cc83f	-0.076553814
35	0xbd2b8cf5	-0.041882474
36	0xbcb2e49b	-0.021837523
37	0xbc1c020f	-0.009521975
38	0xbdc4f9cc	-0.096179575
39	0x3b46d3d7	0.0030338669
40	0x3c9fd73f	0.019511817
41	0x3d1c0dab	0.038098972
42	0x3bc262e5	0.0059321993
43	0x3cbc92fa	0.023019303
44	0xbda4a11c	-0.08038542
45	0xbda0242f	-0.078194015
46	0xbd2967e1	-0.041358832
47	0x3da11fd7	0.07867401
48	0x3d14c273	0.036318254
49	0xbcae8bc4	-0.02130688
50	0xbc02a051	-0.007972793
51	0xbcd5b9d9	-0.026089596
52	0xbd7fe4c5	-0.06247403
53	0xbd2a04a9	-0.04150835
54	0x3dab7e74	0.083737284
55	0x3cdafb86	0.026731264
56	0x3d0b532b	0.034014862
57	0xbca1418b	-0.019684574
58	0xbd04b5ec	-0.032400057
59	0x3dd590bd	0.10427997
60	0x3d895ed7	0.067075424
61	0x3cd8582e	0.026409235
62	0xbd680752	-0.056647606
63	0x3c02ff69	0.007995465
64	0x3c90336e	0.017602649
65	0xbcee7ab1	-0.029111238
66	0xbd66b1c2	-0.056321867
67	0x3dcec522	0.10096194
68	0x3da06c76	0.07833187
69	0x3cb2e4e3	0.021837657
70	0xbdcbd8b6	-0.09953444
71	0x3cec1cf0	0.028822392
72	0x3cc75d70	0.024336547
73	0x3dfe09a9	0.12404186
74	0xbde49028	-0.11160308
75	0xbd599968	-0.053124815
76	0x3d2fd521	0.042927865
77	0xbcc207e7	-0.023685409
78	0xbd297fdc	-0.0413817
79	0xbd08a5cf	-0.033361252
80	0xbd416e66	-0.047224425
81	0x3ce2a359	0.02766578
82	0xbd0a294c	-0.03373079
83	0xbd71a840	-0.058998346
84	0x3cd01eba	0.025405277
85	0x3d152294	0.03640993
86	0xbd014109	-0.031556163
87	0x3c68770b	0.014188538
88	0x3d9fd0f1	0.07803524
89	0x3c8cf16b	0.01720496
90	0x3d149c44	0.03628184
91	0x3b3c64ee	0.0028746682
92	0xbd90197e	-0.07036112
93	0x3cf98f76	0.030463915
94	0xbd7cd53c	-0.061726794
95	0xbd1b24d5	-0.037876923
96	0xbb922db3	-0.004461014
97	0x3cb347e0	0.021884859
98	0xbd8e2f54	-0.06942621
99	0xbbe27de2	-0.006911979
100	0xbbedd7ba	-0.0072583826
101	0xbd8b246d	-0.06794057
102	0xbd8dd159	-0.069246955
103	0x3d60fdb3	0.054929446
104	0xbd553c64	-0.052059546
105	0xbcccfd20	-0.025023043
106	0xbcd87633	-0.02642355
107	0x3c37a8b1	0.011209653
108	0x3d141d19	0.036160562
109	0xbc951e0c	-0.018202804
110	0xbd41bdf8	-0.04730031
111	0x3cd6e176	0.026230555
112	0xbc36ab1e	-0.011149196
113	0xbc1c3666	-0.009534454
114	0xbd34783a	-0.04405997
115	0xbdb76e19	-0.08956546
116	0xbd45dc4a	-0.048305787
117	0xbaca00d3	-0.0015411623
118	0x3c7dd72c	0.0154931955
119	0x3d7b8b77	0.0614123
120	0x3d5c559b	0.053792577
121	0x3cc549f5	0.024083117
122	0x3dd04a9e	0.10170482
123	0xbd2d834b	-0.04236154
124	0xbd183be7	-0.037166502
125	0xbcf5e6b6	-0.030017238
126	0xbaaee58c	-0.0013343557
127	0x3d43cc70	0.04780239
128	0xbd47130f	-0.04860216
129	0xbe042982	-0.12906459
130	0x3d993b0d	0.07481966
131	0xbc40db8d	-0.011771095
132	0x3d966a28	0.073444664
133	0xbb3a9952	-0.0028472734
134	0x3c9bcad3	0.019017613
135	0xbcb90cf1	-0.022589179
136	0xbd159ace	-0.036524586
137	0x3c2eb056	0.010662159
138	0x3d3dbf74	0.046325162
139	0xbb78f8f3	-0.0037990182
140	0x3cd1a5e9	0.025591807
141	0xbd46ca0c	-0.04853253
142	0x3c7e105d	0.015506831
143	0x3da740c4	0.0816665
144	0x3d0d8c43	0.034557592
145	0xbca06087	-0.019577278
146	0x3dd5f9af	0.10448014
147	0xbd4d2662	-0.050085433
148	0x3d6e2f52	0.058150597
149	0xbb9c4594	-0.0047690365
150	0xbb205a7b	-0.0024467993
151	0x3c2926d9	0.010324203
152	0xbc51b687	-0.012799866
153	0x3d2b9aaf	0.041895565
154	0xbd1a18e0	-0.03762138
155	0xbd2b7fcc	-0.041869923
156	0xbd955fd9	-0.07293672
157	0xbd96449f	-0.07337307
158	0xbd0ba599	-0.034093473
159	0xbbf8872a	-0.007584472
160	0x3da3b1d2	0.07992901
161	0xbd29971a	-0.041403867
162	0xbd9e00b5	-0.077149786
163	0xbd2cb1c2	-0.04216171
164	0xbcb46540	-0.022020936
165	0xbc155560	-0.009114593
166	0xbdc7e919	-0.09761257
167	0x3b5474cf	0.0032418256
168	0x3c9fad2e	0.019491758
169	0x3d1cd16c	0.038285658
170	0x3be12e44	0.0068719704
171	0x3cbe6a9b	0.023244193
172	0xbda68ffc	-0.081329316
173	0xbda12a2a	-0.0786937
174	0xbd2924ac	-0.04129474
175	0x3da11911	0.07866109
176	0x3d1210e7	0.03566065
177	0xbcaedc36	-0.02134524
178	0xbc009426	-0.007847821
179	0xbcd712e3	-0.026254123
180	0xbd846443	-0.06464436
181	0xbd2b3916	-0.04180249
182	0x3dac263e	0.084057316
183	0x3cdfae8c	0.02730491
184	0x3d07d864	0.03316535
185	0xbca29316	-0.019845527
186	0xbd045fec	-0.03231804
187	0x3dd66697	0.10468786
188	0x3d8a1388	0.067420065
189	0x3cdd3963	0.027004903
190	0xbd671a32	-0.056421466
191	0x3c10c119	0.008835101
192	0x3c93c95c	0.018040352
193	0xbce81165	-0.028328607
194	0xbd6d2c2c	-0.057903454
195	0x3dcf2899	0.10115165
196	0x3da09e0b	0.07842644
197	0x3cb65779	0.022258507
198	0xbdccdb33	-0.100027464
199	0x3ce90899	0.028446482
200	0x3cbf6692	0.023364339
201	0x3dfe9bad	0.124320365
202	0xbde5caf8	-0.11220354
203	0xbd5d0aaa	-0.05396525
204	0x3d31dab1	0.04342145
205	0xbcc07382	-0.023492578
206	0xbd2b3c00	-0.041805267
207	0xbd098e8b	-0.033583205
208	0xbd434942	-0.047677286
209	0x3ce25313	0.027627503
210	0xbd09a982	-0.03360892
211	0xbd74d04b	-0.059768956
212	0x3cdb05ea	0.026736218
213	0x3d17bb98	0.037044138
214	0xbd001bf3	-0.031276654
215	0x3c6e26bd	0.014535603
216	0x3da0a561	0.078440435
217	0x3c8be8db	0.017078808
218	0x3d14d05f	0.03633153
219	0x3b248234	0.0025102021
220	0xbd914b1a	-0.070944026
221	0x3cf5eef3	0.030021166
222	0xbd7b1028	-0.061294705
223	0xbd1a5c05	-0.037685413
224	0xbb867856	-0.0041037006
225	0x3cb3df2c	0.021957003
226	0xbd912861	-0.0708778
227	0xbbedca26	-0.007256764
228	0xbbfe1399	-0.007753801
229	0xbd8c2e2a	-0.068447426
230	0xbd8d9b8f	-0.06914436
231	0x3d6400aa	0.055664696
232	0xbd57f24e	-0.052721314
233	0xbcd39274	-0.02582667
234	0xbcd72fc2	-0.02626789
235	0x3c3b928a	0.011448512
236	0x3d121c7a	0.03567169
237	0xbc963d46	-0.018339764
238	0xbd43dc3d	-0.047817457
239	0x3cd20b6e	0.025640216
240	0xbc39ea13	-0.011347312
241	0xbc20bc8a	-0.009810576
242	0xbd3501e8	-0.04419127
243	0xbdb96043	-0.090515636
244	0xbd468f4a	-0.048476495
245	0xbb28cfa1	-0.0025758522
246	0x3c83c982	0.016087297
247	0x3d823df7	0.06359475
248	0x3d5bd0e6	0.053666018
249	0x3ccabc4c	0.02474799
250	0x3dd284a4	0.102792054
251	0xbd2ec801	-0.042671207
252	0xbd15a572	-0.036534734
253	0xbcfabb69	-0.030606942
254	0xbaccd301	-0.0015626849
255	0x3d46a194	0.048493937

classifier.bias f4 [66]
0	0xbed79501	-0.42105868
1	0xbed21330	-0.41030264
2	0xbed6d5cc	-0.4195999
3	0xbef73828	-0.4828503
4	0xbed3f0a9	-0.41394547
5	0xbed0ce8d	-0.40782586
6	0x3e2d4483	0.16920666
7	0x3e53d61e	0.20687148
8	0x3daa5464	0.083168775
9	0x3e5eaaf6	0.21744904
10	0x3e844a78	0.25838065
11	0x3cccc379	0.024995552
12	0x3e67f9e8	0.22653925
13	0x3d913996	0.07091062
14	0xbb029936	-0.0019927747
15	0x3e83631e	0.25661558
16	0x3e0ddb20	0.13853121
17	0x3d99d97f	0.07512187
18	0x3db454d5	0.08805243
19	0x3e1baec3	0.15203385
20	0xbca4832d	-0.02008208
21	0x3df3fabc	0.11913058
22	0x3da7263a	0.08161588
23	0x3d245265	0.04011764
24	0x3e671884	0.22567946
25	0x3e47af6d	0.19500513
26	0x3e09b2d2	0.13447121
27	0xb7c1da11	-2.3108938e-05
28	0x3e049d4b	0.12950628
29	0x3d342c64	0.043987647
30	0x3cdcd024	0.026954718
31	0x3db78191	0.0896026
32	0x3dfe2ca7	0.124108605
33	0x3d30db0a	0.043177642
34	0xbcccd2f3	-0.025002932
35	0xbd2f2808	-0.042762786
36	0x3dba52da	0.09097834
37	0xbcc32073	-0.023819184
38	0xbe2c34c9	-0.16817011
39	0xbd3ae53e	-0.04562878
40	0xbe3e2c27	-0.1857153
41	0xbce16a9d	-0.027516657
42	0xbd888f84	-0.066679984
43	0xbda0f097	-0.07858389
44	0xbe1cba04	-0.15305334
45	0x3d075357	0.033038463
46	0x3dd4cd1b	0.10390683
47	0xbdbfee50	-0.093716264
48	0xbc87b896	-0.01656751
49	0xbe2d8665	-0.16945799
50	0xbeaba720	-0.33525944
51	0xbcb8671c	-0.022510104
52	0x3cba350a	0.02273037
53	0x3d60836d	0.054812837
54	0xbe0213c5	-0.12702854
55	0xbda298cb	-0.07939299
56	0xbe221033	-0.15826492
57	0xbe3f8e73	-0.18706684
58	0xbdd5b5ac	-0.10435042
59	0xbe709e2d	-0.2349784
60	0xbe9a08b6	-0.3008477
61	0xbe7aba94	-0.24485236
62	0xbe8f7427	-0.28018305
63	0xbebb0924	-0.3653041
64	0xbe91b494	-0.28458083
65	0xbec4ceba	-0.3843897
